{"class_name": "Sequential", "keras_version": "2.2.4", "config": {"layers": [{"class_name": "Dense", "config": {"kernel_initializer": {"class_name": "VarianceScaling", "config": {"distribution": "uniform", "scale": 1.0, "seed": null, "mode": "fan_avg"}}, "name": "dense_1", "kernel_constraint": null, "bias_regularizer": null, "bias_constraint": null, "dtype": "float32", "activation": "relu", "trainable": true, "kernel_regularizer": null, "bias_initializer": {"class_name": "Zeros", "config": {}}, "units": 512, "batch_input_shape": [null, 128], "use_bias": true, "activity_regularizer": null}}, {"class_name": "Dropout", "config": {"rate": 0.2, "noise_shape": null, "trainable": true, "seed": null, "name": "dropout_1"}}, {"class_name": "Dense", "config": {"kernel_initializer": {"class_name": "VarianceScaling", "config": {"distribution": "uniform", "scale": 1.0, "seed": null, "mode": "fan_avg"}}, "name": "dense_2", "kernel_constraint": null, "bias_regularizer": null, "bias_constraint": null, "activation": "relu", "trainable": true, "kernel_regularizer": null, "bias_initializer": {"class_name": "Zeros", "config": {}}, "units": 512, "use_bias": true, "activity_regularizer": null}}, {"class_name": "Dropout", "config": {"rate": 0.2, "noise_shape": null, "trainable": true, "seed": null, "name": "dropout_2"}}, {"class_name": "Dense", "config": {"kernel_initializer": {"class_name": "VarianceScaling", "config": {"distribution": "uniform", "scale": 1.0, "seed": null, "mode": "fan_avg"}}, "name": "dense_3", "kernel_constraint": null, "bias_regularizer": null, "bias_constraint": null, "activation": "relu", "trainable": true, "kernel_regularizer": null, "bias_initializer": {"class_name": "Zeros", "config": {}}, "units": 512, "use_bias": true, "activity_regularizer": null}}, {"class_name": "Dropout", "config": {"rate": 0.2, "noise_shape": null, "trainable": true, "seed": null, "name": "dropout_3"}}, {"class_name": "Dense", "config": {"kernel_initializer": {"class_name": "VarianceScaling", "config": {"distribution": "uniform", "scale": 1.0, "seed": null, "mode": "fan_avg"}}, "name": "dense_4", "kernel_constraint": null, "bias_regularizer": null, "bias_constraint": null, "activation": "softmax", "trainable": true, "kernel_regularizer": {"class_name": "L1L2", "config": {"l2": 0.009999999776482582, "l1": 0.0}}, "bias_initializer": {"class_name": "Zeros", "config": {}}, "units": 7, "use_bias": true, "activity_regularizer": null}}], "name": "sequential_1"}, "backend": "tensorflow"}